…
l config value was 0. 2020-05-28 15:11:01.678998: I tensorflow/core/common_runtime/gpu/gpu_device.cc:1325] Created TensorFlow device (/job:localhost/replica:0/task:0/device:GPU:0 with 14858 MB memory) -&gt; physical GPU (device: 0, name: Tesla P100-PCIE-16GB, pci bus id: 0000:00:04.0, compute capability: 6.0) Model: &#34;model&#34; __________________________________________________________________________________________________ Layer (type) Output Shape Param # Connected to ================================================================================================== img_in (InputLayer) [(None, 120, 160, 3) 0 __________________________________________________________________________________________________ cropping2d (Cropping2D) (None, 120, 160, 3) 0 img_in[0][0] __________________________________________________________________________________________________ batch_normalization_v1 (BatchNo (None, 120, 160, 3) 12 cropping2d[0][0] __________________________________________________________________________________________________ conv2d_1 (Conv2D) (None, 58, 78, 24) 1824 batch_normalization_v1[0][0] __________________________________________________________________________________________________ dropout (Dropout) (None, 58, 78, 24) 0 conv2d_1[0][0] __________________________________________________________________________________________________ conv2d_2 (Conv2D) (None, 27, 37, 32) 19232 dropout[0][0] __________________________________________________________________________________________________ dropout_1 (Dropout) (None, 27, 37, 32) 0 conv2d_2[0][0] __________________________________________________________________________________________________ conv2d_3 (Conv2D) (None, 12, 17, 64) 51264 dropout_1[0][0] __________________________________________________________________________________________________ dropout_2 (Dropout) (None, 12, 17, 64) 0 conv2d_3[0][0] __________________________________________________________________________________________________ conv2d_4 (Conv2D) (None, 10, 15, 64) 36928 dropout_2[0][0] __________________________________________________________________________________________________ dropout_3 (Dropout) (None, 10, 15, 64) 0 conv2d_4[0][0] __________________________________________________________________________________________________ conv2d_5 (Conv2D) (None, 8, 13, 64) 36928 dropout_3[0][0] __________________________________________________________________________________________________ dropout_4 (Dropout) (None, 8, 13, 64) 0 conv2d_5[0][0] __________________________________________________________________________________________________ flattened (Flatten) (None, 6656) 0 dropout_4[0][0] __________________________________________________________________________________________________ dense (Dense) (None, 100) 665700 flattened[0][0] __________________________________________________________________________________________________ dropout_5 (Dropout) (None, 100) 0 dense[0][0] __________________________________________________________________________________________________ dense_1 (Dense) (None, 50) 5050 dropout_5[0][0] __________________________________________________________________________________________________ dropout_6 (Dropout) (None, 50) 0 dense_1[0][0] __________________________________________________________________________________________________ n_outputs0 (Dense) (None, 1) 51 dropout_6[0][0] __________________________________________________________________________________________________ n_outputs1 (Dense) (None, 1) 51 dropout_6[0][0] ================================================================================================== Total params: 817,040 Trainable params: 817,034 Non-trainable params: 6 __________________________________________________________________________________________________ None found 0 pickles writing json records and images in tub /content/mycar/data/tubVaihingenIIICleaned200126 /con
…
